dqnAgent_Trained_Model.pth (torch_old, 88577 bytes, 6 tensors)

fc1.weight f4 [128, 37]
-0.4391312 0.1950538 -0.20464244 -0.35332784 -0.17015855 0.26185957 -0.3017815 0.27888042
-0.41078556 0.067065895 0.094998136 -0.41581717 -0.18815207 -0.2990098 -0.7819349 -0.009591223
-0.5539658 0.19683585 0.2890218 -0.09834103 -0.29487216 0.29917806 0.020474678 0.12144534
-0.46855912 0.13021557 0.02779993 -0.5121102 -0.119358085 -0.35975757 -0.2989085 0.24976619
-0.10168617 -0.0066251946 -0.1417633 -0.5385457 -0.10840715 -0.3550742 -0.00973366 0.19341384
0.22809851 -0.8619074 0.20367788 0.055520095 -0.70355135 -0.3738683 -0.8736967 0.40182173
-0.36898103 -0.60710657 0.06361436 -0.21442014 0.08955836 -0.22815198 -0.09034374 -0.028383289
-0.63992125 -0.5067697 -1.2800356 -0.05757068 0.51576906 -0.4337875 -0.11873202 -0.012664781
0.31958294 -0.71946555 0.25786695 -0.38950786 0.24880455 0.51630235 -0.7483308 -0.06344611
0.031849347 -0.04653012 0.3524617 -0.3408136 0.32720247 0.025179356 0.09372509 -0.4066395
0.14084098 -0.31241968 0.5874639 -0.177601 0.004823499 0.17963874 -0.20396051 0.02015766
-0.17705797 -0.69403505 0.095053494 0.2823762 0.502763 0.17579047 -0.31339568 -0.109195635
0.26646733 0.17098236 -0.21345302 -0.05424198 0.22584148 0.3107144 -0.5236407 -0.019174635
-0.01998262 -0.05822054 -0.21300006 -0.04257142 -0.06190702 0.11590539 -0.10102262 0.12043225
-0.3824797 0.45812887 -0.1832885 -0.60644084 -0.048814498 -0.5890554 0.19842587 -0.16367471
0.09862008 0.0052568777 0.004261122 0.016752556 -0.21242146 -0.46476063 -0.087474 -0.27288154
-0.035462763 -0.06981899 0.008853674 0.09104093 -0.63919497 0.31993437 -0.24985242 -1.0327641
0.06434098 0.021489682 -0.37282607 0.24503899 0.018851846 -0.44162503 -0.8266901 0.24279283
0.32796296 -0.10800799 0.3286783 -0.039251495 -0.27709818 -0.63092566 -0.21060334 0.17131083
-0.12527627 0.0651451 0.011588743 -0.19975321 -0.31548238 0.07535753 0.10343245 -0.2898859
-0.11710957 -0.6700153 0.44410795 -0.0027080562 -0.6667212 0.18737505 -0.5450407 0.2729096
-1.2603623 0.06517112 0.5082417 -0.18542969 -0.10727014 -0.6894842 -0.45382503 0.55317146
-0.3702718 -0.017950134 0.32002038 -0.9455177 -0.025752245 -0.00842978 0.026725935 -0.03624637
-0.0734768 -0.006560003 0.19994122 0.015577434 0.02677641 0.21442579 0.1616178 0.1902027
0.17886521 0.12441164 -0.16823493 0.002354063 -0.009681125 0.14415586 -0.012960054 0.13811797
0.13273664 0.10680447 0.06356497 0.16014826 0.004569028 0.10794007 0.07425956 0.35132188
0.30635545 0.25026906 0.16587508 0.06273472 0.18252696 0.059125256 0.027912494 0.5950572
-0.5351814 -1.1322588 -0.5891526 -3.454441 -0.00041938247 0.0039273454 0.8289244 -1.0027423
-1.1464546 -0.5448622 -3.7141292 -0.1379989 0.08847365 0.09361182 0.2005965 0.07682595
0.18525001 0.114929 0.147569 0.19534726 -0.04089433 -0.065591045 0.03101486 0.032796234
0.23594673 0.3487338 -0.047699064 0.10152187 0.15830036 0.11930321 0.10847922 -0.0415921
0.041974843 0.07950635 0.013584659 0.035805676 -0.07858813 0.061636686 0.010688622 0.12966561
00000000: ced5 e0be 2fbc 473e ca8d 51be 63e7 b4be
00000010: 0b3e 2ebe 7512 863e 1b83 9abe 6ac9 8e3e
00000020: 7c52 d2be d859 893d 628e c23d fde5 d4be
00000030: f0aa 40be d017 99be e32c 48bf 8124 1dbc
00000040: b4d0 0dbf 568f 493e aafa 933e 0667 c9bd
00000050: 7cf9 96be de2d 993e 83ba a73c 56b8 f83d
00000060: fbe6 efbe 3b57 053e aebc e33c a719 03bf
00000070: 0372 f4bd 2532 b8be 890a 99be b5c2 7f3e
00000080: d740 d0bd 2918 d9bb 662a 11be 22de 09bf
00000090: 9104 debd 49cc b5be ee79 1fbc 470e 463e
000000a0: a892 693e f7a5 5cbf ef90 503e 0a69 633d
000000b0: f11b 34bf aa6b bfbe 96aa 5fbf 94bb cd3e
000000c0: 15eb bcbe 566b 1bbf 3f48 823d f490 5bbe
000000d0: 606a b73d aca0 69be 2406 b9bd 1284 e8bc
000000e0: e1d1 23bf a9bb 01bf 35d8 a3bf 3ccf 6bbd
000000f0: 7109 043f 6519 debe c629 f3bd f17f 4fbc
00000100: 60a0 a33e e52e 38bf 2307 843e 936d c7be
00000110: 9fc6 7e3e 642c 043f 9b92 3fbf 09f0 81bd
00000120: 7674 023d 5e96 3ebd dc75 b43e 1f7f aebe
00000130: 1587 a73e f044 ce3c f1f2 bf3d 0d33 d0be
00000140: 9e38 103e 79f5 9fbe 0964 163f 09dd 35be
00000150: 710e 9e3b 38f3 373e 06db 50be ad21 a53c
00000160: af4e 35be 48ac 31bf 68ab c23d 9d93 903e
00000170: 13b5 003f 6b02 343e 6675 a0be f6a1 dfbd
00000180: 686e 883e 0016 2f3e 6e93 5abe d72c 5ebd
00000190: fd42 673e f515 9f3e 510d 06bf 2014 9dbc
000001a0: 97b2 a3bc a978 6ebd b01c 5abe 5f5f 2ebd
000001b0: 3792 7dbd ce5f ed3d f3e4 cebd 2fa5 f63d
000001c0: 61d4 c3be de8f ea3e fbaf 3bbe b53f 1bbf
000001d0: b6f1 47bd 56cc 16bf 2730 4b3e 589a 27be
000001e0: 53f9 c93d e341 ac3b e2a0 8b3b a83c 893c
000001f0: 0385 59be 1bf5 edbe 9225 b3bd 21b7 8bbe
00000200: 6741 11bd 42fd 8ebd 000f 113c ab73 ba3d
00000210: 48a2 23bf 70ce a33e 50d9 7fbe 9d31 84bf
00000220: 34c5 833d 210b b03c 0fe3 bebe 80eb 7a3e
00000230: 306f 9a3c ad1c e2be f6a1 53bf af9e 783e
00000240: c3ea a73e 4b33 ddbd 8648 a83e 2dc6 20bd
00000250: d0df 8dbe 5884 21bf 67a8 57be 1b6c 2f3e
00000260: 6c48 00be cb6a 853d b6de 3d3c 1b8c 4cbe
00000270: e886 a1be 0c55 9a3d 64d4 d33d ed6b 94be
00000280: 24d7 efbd 1f86 2bbf 1e62 e33e a579 31bb
00000290: 3eae 2abf 3fdf 3f3e ca87 0bbf cfba 8b3e
000002a0: 8d53 a1bf 7078 853d 211c 023f 48e1 3dbe
000002b0: 72b0 dbbd 0982 30bf c15b e8be a59c 0d3f
000002c0: 4494 bdbe 290c 93bc b6d9 a33e 730d 72bf
000002d0: 5ff6 d2bc 0f1d 0abc 59f0 da3c 1377 14bd
000002e0: 017b 96bd 4bf5 d6bb 64bd 4c3e 7e38 7f3c
000002f0: 345a db3c 6f92 5b3e 237f 253e 7fc4 423e
00000300: 7128 373e 88cb fe3d c745 2cbe a046 1a3b
00000310: 959d 1ebc 989d 133e 6856 54bc cc6e 0d3e
00000320: 1dec 073e 4dbc da3d 5a2e 823d e8fd 233e
00000330: c9b7 953b af0f dd3d 6515 983d 76e0 b33e
00000340: 9fda 9c3e 4423 803e 28db 293e 107b 803d
00000350: 59e8 3a3e 532d 723d bea8 e43c ab55 183f
00000360: a601 09bf dbed 90bf b4d2 16bf 9015 5dc0
00000370: 90e0 dbb9 f6b0 803b 6434 543f dc59 80bf
00000380: 06bf 92bf 177c 0bbf 4bb4 6dc0 954f 0dbe
00000390: ac31 b53d 8eb7 bf3d 2b69 4d3e ec56 9d3d
000003a0: 2eb2 3d3e e55f eb3d 541c 173e 1d09 483e
000003b0: d080 27bd 9954 86bd e012 fe3c 5855 063d
000003c0: 059c 713e 3d8d b23e 1860 43bd b3ea cf3d
000003d0: 7d19 223e 3e55 f43d 5a2a de3d 7a5c 2abd
000003e0: d0ed 2b3d 3ad4 a23d 3192 5e3c f9a8 123d
000003f0: d0f2 a0bd c076 7c3d 541f 2f3c 10c7 043e

fc1.bias f4 [128]
-0.2014369 -0.040166218 -0.049025964 -0.14847504 -0.1314682 0.039563034 0.1896281 0.033953585
-0.1342944 -0.032470316 -0.23123091 0.02425695 -0.13215022 0.022937758 -0.15574123 -0.11896866
-0.17502114 -0.10002896 -0.22808091 -0.27131253 -0.16228947 0.076254405 0.10236644 -0.03345426
-0.07531879 0.022222573 0.11088334 -0.23634656 -0.2694586 -0.24796261 -0.10685096 -0.019799504
-0.30995834 0.057796985 -0.026057377 -0.08051839 -0.19090539 -0.018141996 -0.00089615816 -0.24083656
-0.033842456 0.12799942 0.101698354 -0.16178066 -0.07354564 -0.15520148 -0.16717489 -0.018333556
-0.18406723 -0.02674163 0.08054007 0.2273685 0.23704241 0.008686868 0.015103013 0.14133674
-0.15910901 0.0281164 -0.16511929 -0.18018171 -0.090915486 -0.1499264 0.12339517 0.014287457
-0.03775193 -0.021664323 -0.15094696 -0.21547608 -0.15363008 -0.09869428 0.022751082 -0.20173863
0.32807615 -0.13252039 -0.20385575 -0.113354966 0.17991972 -0.14427575 0.041579437 0.06116245
-0.0022931874 -0.1244016 -0.017099427 0.15995811 0.0024102328 -0.018645898 -0.16019858 0.03328234
-0.11041757 -0.12379812 0.13087979 -0.27497402 -0.29694444 -0.37803033 -0.11478535 -0.19439246
-0.118575394 -0.37300646 -0.34857547 0.042320393 -0.33558697 -0.15566221 0.005164128 0.1105568
-0.36500925 -0.38651684 -0.028240416 0.21753167 -0.25574505 -0.15565927 0.49422354 -0.13443719
-0.16607657 -0.17655985 -0.12162756 -0.005510404 0.115159884 -0.03468018 0.030413698 -0.05853839
0.22754017 -0.062380075 -0.071158275 -0.2808561 -0.1361371 -0.22378525 -0.086603664 -0.20509118
00000000: 7a45 4ebe 5585 24bd 73cf 48bd d709 18be
00000010: 9a9f 06be d90c 223d de2d 423e ea12 0b3d
00000020: 7984 09be 98ff 04bd ccc7 6cbe 83b6 c63c
00000030: 6352 07be f7e7 bb3c a17a 1fbe d7a5 f3bd
00000040: be38 33be fcdb ccbd 0b8e 69be 7ae9 8abe
00000050: 362f 26be 452b 9c3d 7fa5 d13d 5607 09bd
00000060: bd40 9abd 1d0c b63c ce16 e33d d504 72be
00000070: 7af6 89be e9e9 7dbe add4 dabd 9232 a2bc
00000080: dcb2 9ebe 88bc 6c3d 4876 d5bc d3e6 a4bd
00000090: b47c 43be 869e 94bc 28ec 6aba dc9d 76be
000000a0: 639e 0abd 4812 033e 3a47 d03d d4a9 25be
000000b0: 199f 96bd 23ed 1ebe e52f 2bbe 4130 96bc
000000c0: 1f7c 3cbe 4311 dbbc 31f2 a43d 4ad3 683e
000000d0: 3fbb 723e 5d53 0e3c a172 773c 94ba 103e
000000e0: 79ed 22be 5d54 e63c 0815 29be 8e81 38be
000000f0: e631 babd 4e86 19be 9bb6 fc3d f015 6a3c
00000100: c5a1 1abd 6179 b1bc d791 1abe c3a5 5cbe
00000110: 3451 1dbe 3a20 cabd 7a60 ba3c 9294 4ebe
00000120: 99f9 a73e 6db3 07be 90bf 50be a626 e8bd
00000130: e03c 383e 06bd 13be 334f 2a3d 7a85 7a3d
00000140: 4d49 16bb 44c6 febd 1914 8cbc 0fcc 233e
00000150: fff4 1d3b 48bf 98bc 190b 24be 1053 083d
00000160: 9b22 e2bd de89 fdbd 5a05 063e 65c9 8cbe
00000170: 1a09 98be 318d c1be 9514 ebbd d10e 47be
00000180: a8d7 f2bd b4fa bebe 7c78 b2be 2658 2d3d
00000190: 0ed2 abbe ea65 1fbe d837 a93b 9b6b e23d
000001a0: 7ee2 babe 89e5 c5be 7258 e7bc 9fc0 5e3e
000001b0: 04f1 82be 2565 1fbe de0a fd3e e7a9 09be
000001c0: fa0f 2abe 1bcc 34be df17 f9bd 9e90 b4bb
000001d0: f2d8 eb3d ce0c 0ebd 2626 f93c f3c5 6fbd
000001e0: 4a00 693e 4082 7fbd 6ebb 91bd 5fcc 8fbe
000001f0: 8667 0bbe f627 65be 435d b1bd 6c03 52be

fc2.weight f4 [128, 128]
0.11002073 -0.25063446 -0.11579713 -0.3483301 0.18749247 -0.2665336 0.2177228 -0.2954849
-0.012920853 0.7116066 -0.19660637 -0.14567828 0.56396955 0.21297912 0.5717353 0.5522847
0.050897874 0.06272027 0.42808583 -0.33501726 -0.07547564 -0.024227979 -0.18036832 -0.08160054
-0.40933412 -0.24889243 0.061989475 0.19556156 0.063435115 0.06989605 0.44366026 -0.09459135
0.0828588 -0.12323213 0.0039793015 -0.30983242 -0.78542477 -0.46428403 -0.3686113 -1.1260264
-0.63215345 -0.097081296 -0.82932496 -1.0384606 0.04097868 0.007134028 0.45262814 0.49847457
-0.15057702 -0.30709642 -0.07086128 0.17197996 -0.046526346 -0.40887305 -0.5683835 0.10435479
-0.5454589 -0.330972 -0.04827567 -0.5275498 -0.189999 -0.045741137 0.181378 -0.20780191
0.084505446 -0.1064259 0.08351165 -0.12118992 -0.73274297 -0.20379674 0.14568174 0.27914408
-0.3068936 -0.052783255 -0.11969215 -0.14774936 0.20766146 0.58087814 0.3919342 -0.6359432
-0.2899969 -0.23746887 -1.2099458 0.10602131 -0.05807426 0.23077606 0.43947676 -0.13387524
-0.45510942 0.25102854 0.12514083 -0.5439439 -0.15191106 -0.34404084 -0.07941157 -0.034266517
-0.40685523 -0.7816885 -0.22768505 0.24473824 -0.63480645 0.20867904 0.10409886 0.09425964
-0.08184962 -0.073799804 0.014268081 -0.36117572 -0.4864966 0.082010806 -0.17126898 0.036906205
0.04721859 0.1495279 -0.35105014 0.5935529 0.11730343 -0.45368508 -0.14915976 0.048083555
0.119851574 0.37370542 -0.103826016 0.007087846 -0.026739873 -0.78590345 0.2681723 -0.05828383
-0.18014811 -0.35151383 -0.45697504 0.22766802 0.26513866 -0.4658728 0.027468557 -0.011118747
-0.6844549 -0.103264235 -0.4575915 -0.36202547 -0.34626678 0.116982125 -0.23931433 -0.21787055
-0.07493398 -0.6061164 0.1437006 -0.32861206 -0.17640197 -0.12856591 -0.49575442 0.002860304
-0.27972287 -0.05634337 0.026889471 -0.27000204 -0.1602432 -0.061131507 -0.16436051 0.13761334
-0.8089299 -0.27865094 -0.26408416 -0.25905427 0.012163037 -0.49769336 0.23804937 -0.35237935
-0.41649467 -0.4321845 -0.3452042 0.098345205 -0.096004866 -0.8075893 -0.34715247 0.04282981
0.02791079 0.016058536 -1.047499 0.21833353 -0.3078406 -0.37640518 0.13021569 -0.22657856
-0.7776996 0.07203136 0.05246974 0.28928873 -0.6738285 -0.28165922 0.21634474 0.13257211
0.16725048 -0.21695477 -0.22192599 0.024207212 0.1187075 0.051739972 -0.11193667 0.16655654
-0.1566531 -0.29508716 0.35667402 -0.20683227 -0.48535976 0.06655714 -0.20165274 -0.10151659
0.08701972 0.06852188 -0.47398373 -0.3089171 0.21570686 -0.4148894 -0.06463403 -0.27870202
0.33396366 -0.541536 -0.6057362 -0.25061148 -1.2434934 -0.25888622 -0.4315996 -0.3663108
-0.13143463 -0.3255429 -0.012035385 -0.18451382 0.15164115 -0.4023614 0.2667312 0.18977162
0.058137927 -0.587745 0.10953557 0.2528965 -0.09541647 -1.0920769 -0.18681301 -0.14459777
-0.2298957 -0.39144954 -0.34325632 0.06254895 -0.30080017 0.08917971 -0.11962941 -0.10356343
-0.08568055 -0.47346395 -0.76544684 -0.5823901 -0.07514241 0.28697154 -0.40371355 -0.50259024
00000000: 8c52 e13d 2953 80be 0c27 edbd 5358 b2be
00000010: 07fe 3f3e 1877 88be baf2 5e3e cc49 97be
00000020: fcb1 53bc da2b 363f 2e53 49be b02c 15be
00000030: 4f60 103f 3317 5a3e 3f5d 123f 8862 0d3f
00000040: 4a7a 503d 7c73 803d 112e db3e 6287 abbe
00000050: f992 9abd c179 c6bc 79b2 38be 2f1e a7bd
00000060: 3e94 d1be a8dd 7ebe ade8 7d3d 4a41 483e
00000070: 45ea 813d a925 8f3d 7027 e33e 1cb9 c1bd
00000080: e0b1 a93d 2161 fcbd cd64 823b 5ba2 9ebe
00000090: 9911 49bf a3b6 edbe 9fba bcbe a221 90bf
000000a0: cfd4 21bf 8fd2 c6bd a44e 54bf 47ec 84bf
000000b0: 43d9 273d 90c4 e93b e0be e73e 0f38 ff3e
000000c0: dd30 1abe be3b 9dbe b81f 91bd 841b 303e
000000d0: 6992 3ebd cf57 d1be 9581 11bf f7b7 d53d
000000e0: 32a3 0bbf 2975 a9be b5bc 45bd 810d 07bf
000000f0: 198f 42be 0f5b 3bbd 28bb 393e 06ca 54be
00000100: 3111 ad3d d2f5 d9bd 2808 ab3d 6c32 f8bd
00000110: 0b95 3bbf 18b0 50be 982d 153e f9eb 8e3e
00000120: 2821 9dbe 4133 58bd 2821 f5bd 9c4b 17be
00000130: 35a5 543e 6eb4 143f 99ab c83e 2ccd 22bf
00000140: 797a 94be 0a2b 73be 81df 9abf b321 d93d
00000150: 46df 6dbd 8f50 6c3e 1903 e13e 9716 09be
00000160: 1a04 e9be d086 803e eb24 003e e83f 0bbf
00000170: 938e 1bbe 1f26 b0be 89a2 a2bd 0c5b 0cbd
00000180: 544f d0be bd1c 48bf 4526 69be a99c 7a3e
00000190: ad82 22bf f5af 553e c831 d53d 330b c13d
000001a0: c6a0 a7bd 5a24 97bd abc4 693c 06ec b8be
000001b0: 1516 f9be 48f5 a73d 2361 2fbe f62a 173d
000001c0: 4868 413d d81d 193e d8bc b3be 15f3 173f
000001d0: c83c f03d 6949 e8be 56bd 18be 43f3 443d
000001e0: be74 f53d 5156 bf3e bca2 d4bd 2941 e83b
000001f0: 940d dbbc f830 49bf e14d 893e 06bb 6ebd
00000200: bf78 38be 9ff9 b3be a2f8 e9be ce21 693e
00000210: 41c0 873e e186 eebe bd05 e13c 682b 36bc
00000220: 7038 2fbf 337c d3bd 6f49 eabe 675b b9be
00000230: e149 b1be 5394 ef3d d10e 75be 7519 5fbe
00000240: fd76 99bd 722a 1bbf 4026 133e d73f a8be
00000250: b8a2 34be c8a6 03be 86d3 fdbe f073 3b3b
00000260: d637 8fbe 4ec8 66bd 4f47 dc3c b53d 8abe
00000270: cb16 24be 0865 7abd 1f4e 28be 83ea 0c3e
00000280: 0816 4fbf 56ab 8ebe 0a36 87be c3a2 84be
00000290: 7a47 473c aad1 febe 37c3 733e 116b b4be
000002a0: ca3e d5be 4947 ddbe 9bbe b0be 3669 c93d
000002b0: 339e c4bd 2cbe 4ebf f8bd b1be 506e 2f3d
000002c0: 2ba5 e43c 318d 833c 7214 86bf d392 5f3e
000002d0: 489d 9dbe 2eb8 c0be 4357 053e 3604 68be
000002e0: 5217 47bf 2d85 933d 83ea 563d a71d 943e
000002f0: 0680 2cbf a335 90be 7a89 5d3e fcc0 073e
00000300: b643 2b3e 6429 5ebe 9140 63be 344e c63c
00000310: eb1c f33d 4bed 533d 0e3f e5bd cc8d 2a3e
00000320: ac69 20be aa15 97be fa9d b63e d7cb 53be
00000330: 1381 f8be 1c4f 883d 0e7e 4ebe eee7 cfbd
00000340: 6537 b23d 3355 8c3d ffad f2be 622a 9ebe
00000350: 42e2 5c3e 626c d4be d95e 84bd 08b2 8ebe
00000360: 49fd aa3e 1aa2 0abf 8711 1bbf 2650 80be
00000370: cb2a 9fbf bc8c 84be 9ffa dcbe 178d bbbe
00000380: cd96 06be 8fad a6be 1030 45bc 31f1 3cbe
00000390: d147 1b3e 5002 cebe fe90 883e 7e53 423e
000003a0: 0922 6e3d 7576 16bf 2f54 e03d a67b 813e
000003b0: b669 c3bd 2dc9 8bbf e94b 3fbe 7011 14be
000003c0: c769 6bbe 136c c8be 4bbf afbe aa19 803d
000003d0: 7b02 9abe daa3 b63d 4400 f5bd 1019 d4bd
000003e0: 4979 afbd de69 f2be 53f4 43bf 8517 15bf
000003f0: 44e4 99bd efed 923e 8bb3 cebe c1a9 00bf

fc2.bias f4 [128]
-0.003044192 -0.16678357 -0.020460662 -0.049045872 -0.21515423 0.22367418 -0.008143562 -0.17878237
-0.116337925 -0.11842263 0.006206575 -0.077927455 -0.2707552 -0.07710029 0.15344569 -0.10354622
-0.1437057 -0.16667393 -0.13502946 -0.11028521 -0.09530755 -0.033678792 -0.10238871 -0.06033868
-0.11164899 0.02642476 -0.10995771 -0.046613246 -0.2565977 -0.014261871 -0.13114484 -0.04542807
-0.1274232 0.0080988025 -0.14576325 -0.09826481 0.025150836 0.015593637 -0.11614278 -0.101289675
-0.110337175 0.52635616 -0.06942195 0.06338983 -0.22195402 0.41069156 -0.213194 0.27623874
0.8023876 -0.09024436 -0.008776412 -0.22193852 0.14705847 -0.08138663 -0.04912177 0.50586694
0.34218532 -0.09749253 -0.035513524 0.0025362975 -0.14208838 0.123066664 0.009612291 -0.2217042
0.058110822 -0.14747885 -0.07534125 -0.15278706 0.0015412107 -0.26083335 0.0052359733 -0.03587812
-0.4081664 1.2574917 -0.06718685 0.44838986 -0.06605418 -0.12703401 -0.25421536 -0.10757347
-0.14533524 -0.079567045 0.55623055 -0.1783682 -0.11015983 -0.15156578 -0.13583821 -0.07021244
0.7275426 0.06692783 -0.18621853 -0.10575075 -0.19013523 0.1419193 -0.13979444 -0.08246843
0.0015220278 -0.127642 -0.021437109 -0.15489833 1.0968683 -0.028316444 -0.09445073 0.03251617
-0.24350372 -0.08030518 -0.12304863 1.2872243 -0.026826803 -0.15184908 -0.07432991 -0.22026351
-0.094056964 0.108207025 -0.09360833 -0.1315278 -0.043191988 -0.053180628 0.00014844075 0.15479141
0.21168548 -0.14868924 0.0020798214 0.10998104 -0.27936274 -0.06932569 -0.0832067 -0.22380391
00000000: 1181 47bb 50c9 2abe 1e9d a7bc 53e4 48bd
00000010: 6451 5cbe d80a 653e 936c 05bc ba12 37be
00000020: 9442 eebd 9087 f2bd 8660 cb3b 6e98 9fbd
00000030: 6da0 8abe c2e6 9dbd de20 1d3e 0a10 d4bd
00000040: 9627 13be 92ac 2abe 2a45 0abe 36dd e1bd
00000050: 9b30 c3bd c6f2 09bd 2cb1 d1bd b125 77bd
00000060: 3aa8 e4bd bd78 d83c 8231 e1bd 88ed 3ebd
00000070: c660 83be 9faa 69bc d54a 06be c912 3abd
00000080: 3a7b 02be d7b0 043c f642 15be 103f c9bd
00000090: 2009 ce3c 747c 7f3c 44dc edbd f670 cfbd
000000a0: 75f8 e1bd 47bf 063f 182d 8ebd 87d2 813d
000000b0: ea47 63be 2a46 d23e 874f 5abe 2a6f 8d3e
000000c0: 4669 4d3f 09d2 b8bd f1ca 0fbc da43 63be
000000d0: 7f96 163e 09ae a6bd e933 49bd 7f80 013f
000000e0: ea32 af3e 2aaa c7bd a176 11bd 0338 263b
000000f0: 9e7f 11be 600a fc3d df7c 1d3c 6d06 63be
00000100: 9d05 6e3d b204 17be 834c 9abd 3674 1cbe
00000110: 7302 ca3a f38b 85be 8792 ab3b f0f4 12bd
00000120: 30fb d0be 7df5 a03f 4299 89bd 5b93 e53e
00000130: 6a47 87bd 3415 02be 8428 82be 7b4f dcbd
00000140: c3d2 14be 0cf4 a2bd 2065 0e3f 27a6 36be
00000150: 7a9b e1bd 0f34 1bbe 2c19 0bbe 8acb 8fbd
00000160: 3b40 3a3f 7511 893d 12b0 3ebe d993 d8bd
00000170: cfb2 42be 4b53 113e 4626 0fbe 35e5 a8bd
00000180: c77e c73a 96b4 02be e09c afbc ab9d 1ebe
00000190: 2e66 8c3f e3f7 e7bc 626f c1bd ad2f 053d
000001a0: 0a59 79be 0b77 a4bd ec00 fcbd c4c3 a43f
000001b0: e2c3 dbbc 537e 1bbe 483a 98bd c28c 61be
000001c0: f0a0 c0bd a59b dd3d b9b5 bfbd 39af 06be
000001d0: 15ea 30bd eed3 59bd c3a6 1b39 a481 1e3e
000001e0: 14c4 583e fe41 18be 9d4d 083b bd3d e13d
000001f0: a208 8fbe a1fa 8dbd 4668 aabd da2c 65be

fc3.weight f4 [4, 128]
0.14475167 -0.22635162 0.29994148 -0.079345144 0.21278685 0.21201792 0.063044995 0.09585103
0.15566324 0.31943992 0.12758182 0.21440439 0.046147373 -0.4640002 -0.73924744 0.21398199
-0.28268927 0.1046627 -0.029751904 0.17620158 0.011700764 -0.053356014 -0.042947263 -0.2814961
-0.45239517 0.04972624 -0.2541554 0.2449894 -0.06388809 0.143818 0.19180618 -0.06934431
0.2065209 0.09041988 -0.022196153 0.04480145 -0.6808659 -0.67994 -0.25301197 0.08006517
0.0010769004 0.04360933 -0.0372523 0.090311095 0.17235406 0.1321578 0.1774179 0.07613049
0.08287491 -0.48663497 0.12247921 -0.25098652 0.09736616 -0.3243101 -0.02765637 0.060887843
0.15502566 -0.5951958 0.013201287 0.06744618 0.41390172 0.25074846 -0.22779603 0.11121869
-0.06502884 -0.022275504 -0.088154465 0.0850871 0.30917674 0.11323774 0.07515256 0.28065366
-0.21690193 0.23992994 -0.4527409 0.16666754 0.04417442 0.3854153 -0.31720084 -0.01604495
0.007262043 -0.50585943 0.033209946 -0.06518095 0.037281353 0.28315443 -0.002894718 -0.012632039
0.10119831 -0.14928526 -0.009488261 0.16273656 -0.021991512 0.015764417 -0.026390279 -0.38781908
0.021207718 0.16848601 0.25677285 0.19922177 0.18998772 0.3435794 0.037114974 -0.4041672
-0.060126204 0.023525633 0.13760358 0.2545383 0.060880456 -0.31251448 0.060233347 -0.2625061
0.058091443 0.16098519 0.07496878 0.041660197 -0.15697402 -0.10868291 -0.09628811 0.23614115
0.07141028 -0.00018201067 0.14235742 0.013001501 -0.20215501 -0.21140501 -0.03135111 0.031304434
0.01073279 0.30271816 0.28300184 -0.11460567 0.4144311 0.26401812 0.15911771 0.11336316
-0.048617676 0.13400431 0.16934995 -0.12544131 0.2655256 0.05521832 -0.095495544 0.117336504
0.05751781 0.05088345 0.07366027 -0.27790675 0.04308841 0.10916555 0.20002256 -0.21401134
-0.0681365 -0.0785275 0.027738655 0.3184295 0.008694092 0.14329861 0.3462097 0.46157002
0.30368963 0.071222946 0.2905909 -0.09729302 -0.06378198 0.08288662 -0.4603679 0.12587409
0.020255128 0.04710193 0.29542774 0.10676346 -0.17240897 0.13705821 -0.15107742 0.11347239
0.033964362 -0.017921265 0.057305913 0.5059021 0.19364396 -0.4658816 0.19509941 0.03881795
0.093084335 -0.10346982 -0.004890904 0.12727846 0.14716741 0.24011879 -0.16132577 -0.13314633
0.018869232 -0.012582964 -0.04388582 0.18026364 -0.020778213 0.0054111965 -0.0029287476 0.15973037
-0.13888276 0.2359533 -0.2572425 0.16729903 -0.05734749 0.31756076 -0.16581386 0.05682101
-0.019945497 -0.2028864 0.092267066 0.06487174 0.038536496 0.21134755 0.01440138 0.11771613
0.048226707 -0.0102697 0.34521118 0.2901377 0.21066678 0.0892888 -0.10670918 -0.17456967
-0.028677512 -0.21381025 0.10295057 0.41404355 0.123883694 0.099732935 0.7886935 0.17977747
-0.007289617 -0.32029325 -0.0799673 0.30472267 0.053348962 -0.0008366356 0.08841079 0.01962249
-0.018351704 0.21758944 -0.4267998 0.091535084 0.060336526 0.026750991 -0.10892059 0.078329206
0.18002242 -0.27105573 -0.736755 0.058568362 -0.2100497 0.13399123 -0.06679071 -0.23056664
00000000: c839 143e b8c8 67be ee91 993e b57f a2bd
00000010: cce4 593e 3a1b 593e bc1d 813d 8b4d c43d
00000020: 2f66 1f3e a18d a33e cfa4 023e d38c 5b3e
00000030: 0705 3d3d 6f91 edbe 523f 3dbf 181e 5b3e
00000040: a6bc 90be 6659 d63d 44ba f3bc 306e 343e
00000050: 90b4 3f3c d68b 5abd 78e9 2fbd 4220 90be
00000060: 57a0 e7be bead 4b3d a820 82be 80de 7a3e
00000070: c2d7 82bd 0745 133e d768 443e 6404 8ebd
00000080: 377a 533e 0f2e b93d b5d4 b5bc ba81 373d
00000090: 3a4d 2ebf 8c10 2ebf c98a 81be 35f9 a33d
000000a0: c826 8d3a b29f 323d de95 18bd 06f5 b83d
000000b0: 957d 303e 6054 073e 0aad 353e 4dea 9b3d
000000c0: 52ba a93d 3828 f9be 61d6 fa3d 4e81 80be
000000d0: e967 c73d f90b a6be 9d8f e2bc 8865 793d
000000e0: 0cbf 1e3e c05e 18bf 364a 583c 3921 8a3d
000000f0: edea d33e 1a62 803e 5d43 69be a0c6 e33d
00000100: d72d 85bd 1e7b b6bc 548a b4bd 2542 ae3d
00000110: 6a4c 9e3e 30e9 e73d 96e9 993d d6b1 8f3e
00000120: 8a1b 5ebe 32b0 753e a8cd e7be e5aa 2a3e
00000130: 3df0 343d 2755 c53e 2668 a2be b370 83bc
00000140: 6ff6 ed3b 0180 01bf 2707 083d 977d 85bd
00000150: 55b4 183d 9ef9 903e 4fb5 3dbb 9df6 4ebc
00000160: 0f41 cf3d 3cde 18be a774 1bbc 6aa4 263e
00000170: 8b27 b4bc 6124 813c 6d30 d8bc 3990 c6be
00000180: cfbb ad3c 9987 2c3e bb77 833e cb00 4c3e
00000190: 248c 423e a4e9 af3e df05 183d 01ef cebe
000001a0: e546 76bd d4b8 c03c f4e7 0c3e d852 823e
000001b0: c95d 793d e601 a0be 3eb7 763d 3367 86be
000001c0: 4bf1 6d3d 4dd9 243e 3b89 993d e2a3 2a3d
000001d0: ccbd 20be 2595 debd b332 c5bd fcce 713e
000001e0: 8e3f 923d 1eda 3eb9 25c6 113e 3f04 553c
000001f0: b901 4fbe 8e7a 58be 066a 00bd 1439 003d
00000200: 96d8 2f3c e0fd 9a3e 9ee5 903e 61b6 eabd
00000210: 5030 d43e 622d 873e c1ef 223e f22a e83d
00000220: 5423 47bd 6d38 093e 136a 2d3e b073 00be
00000230: f9f2 873e 9b2c 623d 2b93 c3bd 1f4e f03d
00000240: cc97 6b3d 2a6b 503d 32db 963d cb49 8ebe
00000250: 797d 303d 3092 df3d b7d2 4c3e ca25 5bbe
00000260: 268b 8bbd 07d3 a0bd 2d3c e33c 3109 a33e
00000270: aa71 0e3c dfbc 123e 6642 b13e e852 ec3e
00000280: 357d 9b3e 56dd 913d 55c8 943e 9041 c7bd
00000290: 20a0 82bd 76c0 a93d 57b5 ebbe 23e5 003e
000002a0: 15ee a53c f4ed 403d 4e42 973e cda6 da3d
000002b0: fa8b 30be fd58 0c3e 0ab4 1abe 3664 e83d
000002c0: 371e 0b3d 9ecf 92bc 9bb9 6a3d cd82 013f
000002d0: 9a4a 463e 0888 eebe 24c8 473e 92ff 1e3d
000002e0: 00a3 be3d fce7 d3bd e043 a0bb 4955 023e
000002f0: 0eb3 163e b3e1 753e 9532 25be 8357 08be
00000300: a693 9a3c c728 4ebc 9ec1 33bd 0897 383e
00000310: 1237 aabc 6850 b13b 3bf0 3fbb 5c90 233e
00000320: 4837 0ebe be9d 713e 4ab5 83be 7050 2b3e
00000330: 34e5 6abd 5397 a23e 1ccb 29be 26bd 683d
00000340: bd64 a3bc 74c1 4fbe 84f6 bc3d 7adb 843d
00000350: 72d8 1d3d 7e6b 583e c4f3 6b3c 2815 f13d
00000360: 5e89 453d 3e42 28bc 85bf b03e ee8c 943e
00000370: 08b9 573e 0cdd b63d 588a dabd 64c2 32be
00000380: 1aed eabc 13f1 5abe c0d7 d23d 84fd d33e
00000390: bcb6 fd3d c840 cc3d d1e7 493f 9617 383e
000003a0: bddd eebb 7afd a3be e5c5 a3bd 9c04 9c3e
000003b0: 7184 5a3d aa51 5bba b710 b53d 58bf a03c
000003c0: 5056 96bc c4cf 5e3e 8185 dabe bf76 bb3d
000003d0: 6f23 773d e524 db3c c211 dfbd 106b a03d
000003e0: cc57 383e d1c7 8abe fa9b 3cbf 61e5 6f3d
000003f0: 4517 57be ff34 093e 91c9 88bd a919 6cbe

fc3.bias f4 [4]
0.98660344 0.9302377 0.96606475 0.914499
00000000: 0b92 7c3f 0f24 6e3f 0550 773f 9b1c 6a3f
